nli_base_prompt.pt (torch, 206136 bytes, 1 tensors)

weight f4 [50, 1024]
0.08201239 -1.6047477 0.5266461 -0.5674419 -0.22115627 -0.42135298 -0.4924664 -1.7979964
1.6795233 0.78084856 1.841181 0.32780677 0.80161995 -0.87641805 0.0317959 -0.8546247
2.5350864 0.5518179 -0.7214235 -2.6228771 -0.86602324 0.2359764 -0.678117 -1.5747313
1.6295052 -0.79437345 -1.8585743 1.0716391 0.31369588 -1.7836456 -0.10734263 -0.9609315
-0.35019702 0.6514135 -0.28707534 0.6178536 0.023669139 1.0853078 -1.0449831 -1.0910902
-2.0379715 2.2056046 -0.26238838 -0.19833675 -0.7015129 0.118606105 1.6486679 -0.35195208
-0.20097779 -0.87109524 0.33030403 1.3061055 -3.2689352 0.2673972 0.03453731 1.1123285
0.073679045 -0.041611876 3.0576377 -0.6835922 0.23522574 -0.18333445 -0.22949432 -0.99386865
-0.98928255 0.43740043 -1.0347977 -1.0476276 1.1845485 0.08368887 -0.9888732 1.1127243
-0.65921915 -1.1819655 -0.12546083 1.0099884 0.40245086 0.25136203 -0.9307927 0.4970282
1.4883144 -0.98000467 -1.0570407 1.1301682 2.8403933 0.24198872 0.44719878 1.2472374
0.37151212 0.22286172 -0.4217758 1.047851 0.90933555 1.1688422 -0.038077377 -0.49875602
-1.2579219 -0.1402484 -0.7000426 0.22243859 -1.7811475 1.1170919 -2.2172036 -1.4380094
-1.5706259 -1.0039487 0.73062783 0.10587459 -1.9714122 0.5779744 1.8871217 1.6993463
1.389309 1.1140596 0.813697 -1.4144262 0.022812728 -1.1145209 -0.9090718 0.27477458
-0.067268 2.0935595 -1.1682452 2.0045938 1.539188 -0.9084599 1.2141714 -1.021829
-0.73616606 -1.0796834 1.2719357 0.37855563 1.17122 1.5365331 -1.3541616 0.31856763
0.3481511 1.3731557 -1.6874149 0.9943591 1.5920964 0.57800037 -0.6737524 0.05994752
2.3391886 1.5337875 1.2733569 0.06977611 -1.5348849 1.259921 0.10821643 -0.95219284
0.44715458 -0.68489486 -0.5788817 1.5031927 -0.30022043 -1.0603637 1.1381208 -0.33104563
-1.2759539 -0.5781643 1.2436428 0.53874725 -1.6032017 1.5013074 -0.23901337 -1.5229679
1.52305 1.528826 -0.19868344 -0.95231026 3.0942445 -0.8321871 1.634953 -2.5426776
-0.42143235 0.5635593 0.3380285 0.03547267 1.524586 -0.15617113 -0.114081405 0.41818032
-0.23394379 -0.2533234 -1.0545548 0.5466321 0.14685328 0.04844745 0.22913152 0.2238187
-2.8302908 -0.90447104 -1.632756 -0.8066276 -0.6505668 -0.15100929 -0.66399974 -0.42716196
-0.67579234 1.0304873 -0.6110374 -1.7783267 -0.54216963 0.5928881 -1.2277603 -0.10458726
-1.5783125 1.2223816 1.1543264 -2.4601374 -0.032975413 -0.08174098 0.34283707 1.5471753
0.36017826 0.6809214 0.5079029 0.63557667 -0.31022778 -0.16783296 -2.318673 1.9631569
-0.066286534 0.15225168 0.24781942 0.21581018 1.4046322 0.82100755 1.0623935 -2.1508117
0.21159354 -0.49986008 -1.257727 -0.43410385 0.6025064 -0.03801593 0.41628715 -0.9418791
1.3202391 -1.0509359 1.002077 0.6337956 0.0678185 1.4098142 -0.359552 -0.13861962
1.1833367 0.14784661 -0.39601052 0.19336604 -0.52382565 1.8099414 -1.4505277 0.9670653
00000000: 1df6 a73d 5f68 cdbf 47d2 063f df43 11bf
00000010: ca76 62be 94bb d7be 8e24 fcbe bf24 e6bf
00000020: 9ffa d63f b1e5 473f d2ab eb3f 4ad6 a73e
00000030: f736 4d3f ef5c 60bf 6b3c 023d afc8 5abf
00000040: db3e 2240 f043 0d3f 36af 38bf 38dd 27c0
00000050: b3b3 5dbf cca3 713e 1399 2dbf cc90 c9bf
00000060: a093 d03f 0f5c 4bbf c3e5 edbf 782b 893f
00000070: bf9c a03e 804e e4bf 74d6 dbbd 9bff 75bf
00000080: 064d b3be 09c3 263f 8afb 92be a72b 1e3f
00000090: c8e5 c13c 5eeb 8a3f 02c2 85bf d8a8 8bbf
000000a0: 206e 02c0 a028 0d40 c557 86be ca18 4bbe
000000b0: 5996 33bf c2e7 f23d 8d07 d33f 1033 b4be
000000c0: 1fcd 4dbe 1900 5fbf 9c1d a93e 772e a73f
000000d0: 3c36 51c0 49e8 883e ff76 0d3d c860 8e3f
000000e0: 0ae5 963d 3771 2abd 56b0 4340 e6ff 2ebf
000000f0: 04df 703e 07bc 3bbe 8f00 6bbe 2d6e 7ebf
00000100: 9f41 7dbf f3f2 df3e 4074 84bf a918 86bf
00000110: 499f 973f 1265 ab3d cb26 7dbf c06d 8e3f
00000120: 96c2 28bf a54a 97bf ce78 00be 4d47 813f
00000130: 0a0e ce3e 86b2 803e 6e48 6ebf 7b7a fe3e
00000140: 1681 be3f 96e1 7abf 1c4d 87bf 5aa9 903f
00000150: 01c9 3540 e4cb 773e 3df7 e43e 7aa5 9f3f
00000160: d636 be3e dd35 643e fff2 d7be fb1f 863f
00000170: 37ca 683f 9f9c 953f 06f7 1bbd f35c ffbe
00000180: 9603 a1bf 479d 0fbe fe35 33bf f1c6 633e
00000190: a4fc e3bf defc 8e3f aae6 0dc0 b110 b8bf
000001a0: 450a c9bf 6481 80bf 6d0a 3b3f c7d4 d83d
000001b0: 3c57 fcbf 21f6 133f 348d f13f 2e84 d93f
000001c0: e1d4 b13f 8199 8e3f 724e 503f eb0b b5bf
000001d0: c2e1 ba3c 9fa8 8ebf eeb8 68bf 41af 8c3e
000001e0: cec3 89bd e1fc 0540 0f89 95bf 444b 0040
000001f0: 1d04 c53f d490 68bf f869 9b3f 4bcb 82bf
00000200: 6175 3cbf 1133 8abf cace a23f 0bd2 c13e
00000210: 89ea 953f 1ead c43f 2b55 adbf 4c1b a33e
00000220: dc40 b23e 91c3 af3f 36fd d7bf 518e 7e3f
00000230: d1c9 cb3f d5f7 133f 0a7b 2cbf 888b 753d
00000240: 44b5 1540 2653 c43f 5cfd a23f c7e6 8e3d
00000250: 1c77 c4bf 1745 a13f 93a0 dd3d e9c2 73bf
00000260: 72f1 e43e 4555 2fbf 9731 14bf 9e68 c03f
00000270: 7eb6 99be ffb9 87bf f1ad 913f d07e a9be
00000280: 7552 a3bf 9302 14bf b02f 9f3f 57eb 093f
00000290: b735 cdbf d72a c03f ecbf 74be 9df0 c2bf
000002a0: 4df3 c23f 92b0 c33f ac73 4bbe 9bca 73bf
000002b0: 1a08 4640 370a 55bf 2446 d13f 3bbb 22c0
000002c0: fbc5 d7be 6c45 103f 1212 ad3e ca4b 113d
000002d0: a225 c33f 53eb 1fbe 83a3 e9bd bb1b d63e
000002e0: f68e 6fbe 9bb3 81be a7fb 86bf 15f0 0b3f
000002f0: b560 163e d570 463d 74a1 6a3e bb30 653e
00000300: 7c23 35c0 6a8b 67bf 26fe d0bf 257f 4ebf
00000310: 8c8b 26bf 2ea2 1abe e3fb 29bf f9b4 dabe
00000320: ba00 2dbf 02e7 833f f26c 1cbf 36a0 e3bf
00000330: a1cb 0abf 84c7 173f 4027 9dbf d831 d6bd
00000340: 2506 cabf 0077 9c3f f8c0 933f e472 1dc0
00000350: 3a11 07bd d167 a7bd 5788 af3e d709 c63f
00000360: 4969 b83e dd50 2e3f ed05 023f 27b5 223f
00000370: 2dd6 9ebe 67dc 2bbe 2365 14c0 ba48 fb3f
00000380: 3cc1 87bd dde7 1b3e 60c4 7d3e 58fd 5c3e
00000390: fdca b33f 8d2d 523f 83fc 873f e6a6 09c0
000003a0: faab 583e a9ed ffbe 33fd a0bf dc42 debe
000003b0: dc3d 1a3f 98b6 1bbd 9723 d53e fd1e 71bf
000003c0: 98fd a83f 1185 86bf 0f44 803f 6e40 223f
000003d0: 6de4 8a3d cb74 b43f 3317 b8be 4df2 0dbe
000003e0: 9477 973f 1a65 173e e4c1 cabe bf01 463e
000003f0: 7019 06bf 29ac e73f e4aa b9bf 9791 773f
